analy_app/temp_model.pth (torch, 8260 bytes, 6 tensors)

lstm.weight_ih_l0 f4 [64, 3]
000000 b1 29 18 3e 65 99 08 3e 34 e1 86 bd 15 27 2a be
       0.14859654 0.13339765 -0.06585923 -0.16616471
000010 9d ee f6 3b ae 30 a4 bc 30 95 b3 3d fc 2b 8f 3e
       0.007535769 -0.020042744 0.0876869 0.27963245
000020 fd 1c 5d bd 82 29 72 be e4 c2 1e 3e fe ee d0 3c
       -0.053982724 -0.23648646 0.15504032 0.025504585
000030 81 74 05 be 7c 69 1a 3d 37 35 14 3e c1 ea 80 3e
       -0.13032724 0.037698254 0.14473425 0.25179103
000040 1d 5e 86 be 49 f6 04 bb f5 c7 fa bd 57 c1 be 3d
       -0.26243678 -0.00202884 -0.1224517 0.093142204
000050 b1 44 ad 3d 86 2b 94 bc 5a 4a 88 bd 99 4b 38 be
       0.084603675 -0.01808716 -0.066548064 -0.17997588
000060 96 a2 78 3d d3 d6 64 bc 94 79 58 be d9 52 4c be
       0.06070193 -0.013967234 -0.21140128 -0.19953479
000070 b4 a8 08 3d 1b 21 3e 3e dd 86 da 3d 82 a6 4a be
       0.033364013 0.18567316 0.106702544 -0.1979008
000080 54 2f 84 bc 86 d2 bf 3b b8 8a 8d 3e dc c9 0d be
       -0.016135849 0.005853954 0.27644897 -0.13846534
000090 cc 66 6b 3d 60 11 d0 bc 11 2d 22 be 9d 0c b0 bd
       0.05747108 -0.02539891 -0.15837504 -0.08596156
0000a0 1e ab f9 bd d0 bd a1 3d fe 98 c4 3d bf 03 01 be
       -0.12190841 0.07897532 0.095994934 -0.12599085
0000b0 30 a6 ae 3e 20 59 1b 3d 7e eb 37 be 86 b2 40 be
       0.34111166 0.037926793 -0.17960927 -0.18818101
0000c0 03 d0 5f bd 78 48 d0 bc 50 45 fb 3b 70 b5 ee 3d
       -0.054641735 -0.02542518 0.007668175 0.116557
0000d0 42 5d 25 3e 01 d4 21 be 32 b3 05 3c c7 21 de 3d
       0.16148856 -0.1580353 0.008160399 0.10846286
0000e0 d0 bd a0 3d 91 c2 e1 3d f2 c6 02 bd ad db a6 bd
       0.07848704 0.11023439 -0.03192801 -0.081473686
0000f0 2f 9a 9b bd 10 e0 49 bd 71 57 75 bc d6 d7 96 be
       -0.075977676 -0.04928595 -0.014974461 -0.29461545
000100 70 f0 5f 3e a8 fa 86 be a8 0f 8f be 44 c4 33 bd
       0.21869063 -0.2636311 -0.27941632 -0.043888345
000110 9f a5 03 be ff d2 37 3d 22 1e ac 3d 29 9e 12 bc
       -0.12856148 0.044878956 0.08404185 -0.008948841
000120 6e b2 b4 3d d6 4a c8 3c 77 64 9b 3c 88 43 ce 3b
       0.08823095 0.024449747 0.018968804 0.0062946714
000130 6c b6 84 bd 3f 71 22 be 3a 0e ba 3d 65 38 92 3e
       -0.06480107 -0.15863512 0.09084745 0.2855865
000140 66 96 86 3d 5e 47 95 3d 2e b3 5e 3b 7b 96 66 bd
       0.06571655 0.07289003 0.003398131 -0.056295853
000150 55 fd 25 3e 64 e9 10 3e 5c e0 f0 3d db 3b bd 3d
       0.1620992 0.14151531 0.11761543 0.09239932
000160 1e 7e 8d 3d 02 1a ae bc 48 88 0b 3d ea 82 7e bd
       0.069088206 -0.021252636 0.034065515 -0.062136568
000170 32 83 57 be 62 82 b1 3d d4 aa 4b 3e 2e b4 1e 3d
       -0.21046141 0.08667447 0.19889385 0.03874605
000180 66 02 53 3e f7 dc 25 be 17 44 21 3e bd 87 cf bc
       0.20606384 -0.16197573 0.1574863 -0.02533328
000190 be f1 ec bd d3 04 30 3d 66 a9 f0 bc 08 5f 22 be
       -0.11569546 0.04297335 -0.02937765 -0.15856564
0001a0 b9 fd 74 bd 66 77 27 3d 1a eb 5c be d2 4a a5 3d
       -0.05981228 0.04088535 -0.21574059 0.080709115
0001b0 08 16 a2 bd 6f f5 a4 3d 9a dc ae bd f0 e5 a7 3d
       -0.079143584 0.08054625 -0.0853817 0.08198154
0001c0 0f 9f 1f be 9e 9b 9d 3d a7 9f 72 bd 18 f9 89 bd
       -0.1558802 0.07695697 -0.059234288 -0.06736964
0001d0 68 8d 99 3d aa 05 ca bc 0c 16 86 3c 78 21 d6 3d
       0.07497674 -0.024660904 0.016367935 0.104556024
0001e0 c2 1d 00 3e 1b 2a e4 3d d5 3b 31 3c c9 61 88 3e
       0.12511352 0.111408435 0.010817488 0.26637104
0001f0 e0 7f 4f be 17 ac 81 bc 05 57 22 3e 44 96 13 3e
       -0.20263624 -0.01582913 0.15853508 0.1441279
000200 2a 46 58 3e a5 90 0d be 95 6c 46 3e f9 72 06 3e
       0.21120515 -0.13824709 0.19377358 0.13129796
000210 61 c2 ca 3c 68 10 e2 bc 3a 45 19 3e ae 33 ba bd
       0.02475089 -0.027595714 0.14967814 -0.09091888
000220 f2 f4 2e be 68 c8 97 3c a5 2b de 3d e6 c7 98 3c
       -0.17085627 0.018528178 0.10848168 0.018650007
000230 b4 e5 03 3e 94 18 be 3d 30 81 b1 3d e6 08 7b 3e
       0.12880594 0.09282032 0.08667219 0.24515113
000240 fb 23 b9 be e5 80 e8 3e b4 03 2b be 02 46 04 bf
       -0.36160263 0.4541084 -0.16700631 -0.51669323
000250 17 fc e5 3d 9e bc 15 bc 3e 62 c5 be 20 c6 a6 3e
       0.11229723 -0.009139208 -0.38551515 0.32573032
000260 5a b7 43 bd 00 c5 f6 be 7c c7 bd 3e 58 be 32 be
       -0.04778228 -0.48197174 0.37066257 -0.17455423
000270 f6 62 37 be 6d 5d db 3d 5d 4f 84 3c 37 a8 ba be
       -0.17908844 0.10711179 0.016151125 -0.36456463
000280 85 a3 03 3e aa d2 cd bd 63 ec 32 be 62 15 9b 3e
       0.12855347 -0.100499466 -0.17472987 0.3028975
000290 89 30 9f bd 7c 3c 4b be 39 24 40 3e f6 16 40 bd
       -0.07772929 -0.19847292 0.18763818 -0.046896897
0002a0 3e 33 01 bf 72 3d c4 3d d0 5b a5 bd c9 58 ed be
       -0.50468814 0.09582032 -0.080741525 -0.463568
0002b0 80 ec d1 3e 27 16 3e be 38 ec 19 be 85 32 96 3d
       0.41000748 -0.18563138 -0.15031517 0.073338546
0002c0 03 da b0 bd 8b 83 b7 be 14 34 39 3e 29 9a 06 3d
       -0.086353324 -0.35842547 0.18086272 0.032861862
0002d0 ec 0a d2 be 31 de 87 3e e6 ff e3 bd 5f bc 95 be
       -0.41023958 0.26536706 -0.11132793 -0.29245278
0002e0 d8 3f 0a 3e 8a 04 bc bd 2b 73 be be b3 21 46 3e
       0.13500917 -0.09180553 -0.3719724 0.19348793
0002f0 49 ce e5 bc c1 f8 c2 be 41 55 5f 3e 3a 06 0d be
       -0.028052466 -0.3808041 0.21809866 -0.13771906

lstm.weight_hh_l0 f4 [64, 16]
000000 97 39 8f bd 07 3d c0 bd 07 a2 22 3a 33 f7 93 be
       -0.06993406 -0.0938664 0.00062039535 -0.28899536
000010 3e 87 83 be cf 5d 62 3e d4 ee 84 3e 33 c0 89 be
       -0.2568912 0.22106098 0.2596346 -0.2690445
000020 49 96 48 3d 33 df f2 bd a6 a3 f4 3c de 35 4b 3e
       0.048971448 -0.11858978 0.02986319 0.19844767
000030 f0 86 07 3d 6a 18 b2 3e 97 78 b9 bd b8 6f 14 be
       0.03308767 0.3478425 -0.09056204 -0.14495742
000040 28 17 2a ba b0 7f d0 bc d9 b3 8e be 62 54 3d be
       -0.0006488436 -0.025451511 -0.27871588 -0.1848922
000050 d8 fa b4 be 2f 5d 84 3e 39 2a 7a 3d 9d 53 da bd
       -0.3534763 0.25852343 0.061075423 -0.10660479
000060 a0 8b 0d be 5b e1 24 be be 75 04 3d 80 71 d5 3e
       -0.13822794 -0.16101591 0.03233885 0.41688156
000070 e8 20 e0 bd c0 31 96 3e 02 40 d6 3c 65 32 80 be
       -0.10943776 0.2933483 0.026153568 -0.25038448
000080 ef 5e bb 3e e8 a1 a5 be e0 2d 85 be f6 13 81 be
       0.36595866 -0.32350087 -0.26011562 -0.2521054
000090 2b c5 bd be d7 ba 11 bc a2 f9 96 3e 52 af 93 be
       -0.3706449 -0.008894644 0.2948733 -0.28844696
0000a0 cc 9b c8 bd af 35 59 be fa c7 0a be bf 69 b8 bd
       -0.09795341 -0.21211885 -0.13552848 -0.090045445
0000b0 41 1e 75 be 3a 3f 80 3e c4 a5 9e 3d b1 3c a9 be
       -0.23937322 0.25048238 0.07746461 -0.33054116
0000c0 67 86 83 3e 23 2d 77 bc c2 ca 36 be 97 21 7d 3c
       0.25688478 -0.015086445 -0.17850783 0.015449903
0000d0 9b 62 73 be 47 80 08 3e 13 3f 7b 3e 9c 3d c3 be
       -0.23768084 0.13330184 0.2453578 -0.38132942
0000e0 fc d0 00 be 42 9d 67 bc db b2 24 be 3b 33 c2 bc
       -0.12579721 -0.014136614 -0.16083853 -0.02370607
0000f0 b4 b5 2d be 06 7a 97 3e 41 2c 74 3e 58 7c cc bd
       -0.16963845 0.29585284 0.23845007 -0.09984654
000100 8c 60 a8 3c 83 47 b2 3c 89 6d ed 3c f6 31 a5 be
       0.02055385 0.021762615 0.028982894 -0.3226468
000110 77 48 a7 be ae 38 63 3e 90 03 ca 3e 3b cd 99 be
       -0.32672474 0.2218959 0.39455843 -0.3003939
000120 5a 00 16 be 6f a8 03 be b9 61 a2 bb 69 26 09 3e
       -0.14648572 -0.12857221 -0.004955497 0.13393559
000130 a4 0f 43 bd db 41 34 3e a5 59 88 bd 45 27 80 be
       -0.047622338 0.17603247 -0.06657723 -0.2502996
000140 f3 d9 c2 3e fe 59 94 bd 93 17 57 be f3 f6 43 bd
       0.38056907 -0.07243727 -0.21005087 -0.04784293
000150 97 e1 61 bd f0 70 b0 bc 4a 6e 39 3e 3f f4 ca be
       -0.05514678 -0.021538228 0.18108478 -0.3963947
000160 b3 08 3e be 82 6a b3 be b0 5e 82 bd d4 5c 91 bc
       -0.18558006 -0.35042197 -0.063657165 -0.01774446
000170 33 a0 06 bd 23 1c b2 3e 6c 09 6e 3e f5 7b 01 be
       -0.03286762 0.34787092 0.23245782 -0.12644942
000180 af bf 56 bc e7 29 f2 bc fa df 11 3d 50 c0 93 be
       -0.013107224 -0.029560996 0.03561399 -0.2885766
000190 e4 10 e5 bd 4c d1 d2 3d 6f bb 27 3d bd 55 b4 be
       -0.11184862 0.102938265 0.040950235 -0.35221663
0001a0 9b 9b 79 bd f3 8d 3f 3c 6b d8 d0 be ab 11 1d bd
       -0.060939413 0.011691558 -0.40790114 -0.038346928
0001b0 e2 bc 67 3d 7d d5 c1 3e 0d bb 6a 3e 45 fe 86 3b
       0.056576617 0.3785819 0.22922917 0.0041196668
0001c0 ad a5 96 3e 65 33 62 be 94 36 0c 3d 4d 0f 13 bc
       0.29423276 -0.22089918 0.034231737 -0.008975816
0001d0 b4 d8 27 be 7a e2 99 3d 32 dd c6 3d 0f d7 16 be
       -0.1639126 0.075139 0.097101584 -0.14730476
0001e0 4a 7c 97 be 62 ad bc be 12 db a8 bd 6e c9 b4 3e
       -0.29587013 -0.3685103 -0.08244909 0.3530993
0001f0 8e e0 45 be 6a 4b 02 3e dd 32 04 bd fd 16 56 be
       -0.19323942 0.1272408 -0.03227507 -0.20907207
000200 a0 3b 58 3d 7d dd b2 be 6f 7e 17 be 85 51 c8 be
       0.052791238 -0.34934607 -0.14794324 -0.39124694
000210 3e 9e 8c be f0 de 84 3e d4 64 9a 3e 74 d3 d0 be
       -0.2746448 0.25951338 0.3015505 -0.40786326
000220 bc c8 8f be a6 c7 24 be fd f2 1e be d6 02 84 3e
       -0.28082836 -0.16091785 -0.1552238 0.25783414
000230 38 5d 21 3b 1c 6d 9f bd 9d 3f 55 bd 23 0e 51 bd
       0.0024622213 -0.07784483 -0.05206262 -0.051038872
000240 df 64 b9 3e fb 37 b1 bd 53 68 cc 3d bb 39 cf be
       0.3620977 -0.086532556 0.09980836 -0.40473732
000250 75 d3 9d be c6 0d 93 3e e4 f8 ab ba 44 b0 77 be
       -0.3082539 0.28721446 -0.001312044 -0.24188334
000260 19 bd 1c be 42 de 0a 3d 91 9a b6 be 85 82 27 be
       -0.1530651 0.033903368 -0.356648 -0.16358383
000270 38 44 b7 be bc bb 91 3e 35 32 c5 3e a2 20 a8 be
       -0.35794234 0.28463542 0.38514867 -0.32837397
000280 5c 75 1e 3c d5 ad e3 be 80 ac a5 be 13 56 43 be
       0.009671535 -0.4446856 -0.3235817 -0.19075803
000290 18 3f c5 be 58 18 78 3e ba 86 e7 bb b2 f8 5d be
       -0.385247 0.24228036 -0.007065621 -0.21676901
0002a0 43 e5 96 be 37 23 44 3d 7b e7 06 3d ff 6e ad 3d
       -0.29471788 0.047885146 0.0329356 0.084684364
0002b0 80 c5 36 be a9 77 a0 bb 10 34 a6 3e 77 4d 34 bc
       -0.17848778 -0.004897077 0.32461596 -0.011004797
0002c0 52 24 dd 3d ae cc 9b be 5f 0d 9f bd f4 dc 15 be
       0.10797943 -0.30429596 -0.07766222 -0.14635068
0002d0 bf a4 90 be 90 aa a2 3c 08 e6 9e 3e 79 e8 29 be
       -0.2825069 0.019856721 0.31034875 -0.16592588
0002e0 41 2f a4 3c b0 77 ba bd 14 56 a7 bd 5c 67 67 3b
       0.020042064 -0.0910486 -0.08170715 0.003530941
0002f0 b8 33 ad be 7c 77 ac 3e be 3a ff 3c 6f 45 88 bc
       -0.3382852 0.3368491 0.03115594 -0.016634671
000300 56 bf 83 3e 65 d0 98 be 2b ac 7f be 87 cc 4d bd
       0.25731915 -0.29846492 -0.2496802 -0.05024388
000310 a5 eb 5a 3a 41 9f 86 3d 19 b8 c0 bd c0 37 a7 be
       0.0008351154 0.06573344 -0.09410114 -0.3265972
000320 8c 10 51 be 1d ef 9d be 1e 31 14 be fb 56 70 bd
       -0.20416468 -0.3084649 -0.14471862 -0.0586767
000330 88 dd b3 be 8e 82 b8 bd ea 0f 63 bd da ed 05 be
       -0.35129952 -0.09009276 -0.0554351 -0.13079014
000340 f5 0b 8e 3e e5 31 d1 3c 82 0f 99 be cc fb 93 be
       0.27743497 0.025536487 -0.29894644 -0.28903043
000350 95 4f a5 3d 3a c8 f2 3d 9e 7e 0c 3e fc 3d c5 be
       0.0807182 0.118545964 0.13720176 -0.38523853
000360 4a dd 60 be 70 e8 56 be c1 a5 7d bd ed f3 69 3e
       -0.21959415 -0.20987105 -0.061925653 0.22846957
000370 c2 26 34 3d 12 c9 2f 3c ae f8 c2 3e ad f6 c8 bc
       0.043982275 0.010729091 0.38080353 -0.024531687
000380 1c f0 ba 3e 19 a1 c3 bd 96 c6 d1 3d bf d6 b2 be
       0.36511314 -0.09552211 0.102429554 -0.34929463
000390 36 5c 83 be 48 32 87 3e a0 46 5b 3e 6f 9b 64 3d
       -0.2565629 0.2640555 0.2141366 0.055812296
0003a0 1d 22 31 be a4 fe 92 be e7 9e bc be 43 6f e8 bc
       -0.1729817 -0.287099 -0.36839983 -0.028373366
0003b0 e3 bd 97 be 1e 30 af bd ab 6b fd 3d 3a c4 a8 be
       -0.2963706 -0.085540995 0.12374052 -0.3296221
0003c0 60 05 2c 3e 37 d4 1a bd fd 91 6c be fa bd 5a be
       0.16798925 -0.03780004 -0.23102565 -0.21361533
0003d0 a4 bd 9c 3c a7 c6 54 3e 9f e0 c0 3d 0a 39 35 be
       0.019133396 0.20778905 0.09417843 -0.1769754
0003e0 e4 11 04 bd bf 0e bf be 65 5b fd bd de 65 1a 3d
       -0.032243624 -0.37315938 -0.12370948 0.037694804
0003f0 aa 92 9d 3d c6 a1 3f bd 48 e6 af 3e 5e 19 ba be
       0.076939896 -0.04678514 0.34355378 -0.3634748

lstm.bias_ih_l0 f4 [64]
000000 ba ab 47 3e 13 38 3a bd 0a bc a8 3c b6 3b 0d 3d
       0.19499102 -0.045463633 0.020597477 0.034480773
000010 8e 39 57 3e 64 56 b1 bd 2f 27 1b 3e a5 c0 87 bb
       0.21018049 -0.08659056 0.15151666 -0.004142838
000020 99 c5 20 3e 48 0f a8 3e d0 71 5d 3d a2 87 86 3d
       0.15700378 0.3282416 0.05406362 0.06568839
000030 dc 34 88 3e 55 23 38 3e 4b 0f c9 bd 02 54 56 bd
       0.26602829 0.17982228 -0.0981737 -0.05232621
000040 48 9a 6c 3e c9 50 9d 3e b6 80 9d 3d 5f b5 d2 3d
       0.23105729 0.30725697 0.07690565 0.102885
000050 63 29 c6 3e a5 db a5 bd 40 3c 7c 3e e8 60 02 bd
       0.3870345 -0.080985345 0.24632359 -0.0318307
000060 c1 d6 e8 3d 15 54 c0 3d 71 bf 42 3e 78 9a 9d 3e
       0.11369086 0.093910374 0.19018342 0.30781913
000070 e1 95 b1 3e 1e dc ae 3e 1d c1 ae 3e fd 33 85 3e
       0.3468466 0.3415231 0.3413171 0.26016226
000080 e8 fe 95 3e ec e2 a3 bd 0c 1a 54 be 76 14 59 bc
       0.2929604 -0.08002266 -0.20713061 -0.013249507
000090 54 73 ea bd d8 fb 29 3e f4 45 a4 3e 9b 17 45 be
       -0.11447778 0.16599977 0.3208462 -0.19247286
0000a0 65 26 8e be 21 d6 b1 3d 90 af 50 be 1b 80 8e bc
       -0.27763668 0.0868342 -0.20379472 -0.01739507
0000b0 14 2f 99 be 2a 62 12 3e 3a fb 92 3e 15 3a 12 3d
       -0.2991873 0.14295259 0.28707296 0.035699923
0000c0 92 16 9d 3e d3 cf 70 3e d7 a9 91 3e 6f b1 f8 3e
       0.30681282 0.23516779 0.2844989 0.4857287
0000d0 6a 51 b6 3e ca e6 74 3e a0 e9 f7 3e 69 90 c2 3e
       0.3560899 0.23916164 0.4842043 0.380008
0000e0 a1 6d b5 3e ac 1c a8 3e 65 2c f2 3e 26 f9 d2 3e
       0.35435203 0.32834375 0.47299495 0.4120571
0000f0 59 bd f0 3e 41 e6 e9 3e b2 61 31 3e 71 ce ad 3e
       0.4701946 0.45683482 0.17322424 0.33946565

lstm.bias_hh_l0 f4 [64]
000000 3a 1e 9a 3d 3b 1b 84 3e 8e a8 07 3e 11 be 8c 3e
       0.075252965 0.25802025 0.13247892 0.2748876
000010 4c c0 28 3e 32 69 1c 3e 76 d6 3c 3e ee 7c a7 3e
       0.16479605 0.15274504 0.18441185 0.327125
000020 db bb 98 3e cf 2d 70 3e 4c 77 65 3e f2 28 98 bc
       0.29830822 0.23454975 0.2240879 -0.018574212
000030 df ec e9 bd 02 c9 3a bc ba 26 91 3e 96 33 8d 3e
       -0.11422133 -0.011400463 0.2834986 0.2757842
000040 f7 33 67 3e 55 d2 3b 3e 55 86 53 3e 67 4c 2d 3e
       0.22578417 0.18341954 0.20656712 0.16923676
000050 cb 10 ef 3d 0d 8e 94 3e e7 95 62 3d dc da 81 bd
       0.11673125 0.29014626 0.05531874 -0.06340572
000060 82 95 ac 3d bc c5 95 3e 84 b7 a8 3d 08 56 92 3d
       0.08426954 0.29252422 0.08238128 0.071453154
000070 0f 8f b6 3d 2b 8e 77 3e 22 b6 0b bd 69 2c 93 3e
       0.08914005 0.24175327 -0.034109242 0.2874482
000080 b8 54 2b 3e fb cc 99 be c0 33 41 be 6e 66 7b be
       0.16731536 -0.300392 -0.18867397 -0.24550793
000090 d9 cb 71 be b0 49 0f 3e 0e b8 41 bd 93 ab 5e be
       -0.23612918 0.13992953 -0.04729467 -0.21745138
0000a0 5a a7 9d be ef 2e 69 be 11 7b 53 bd de 8c 0a bd
       -0.30791742 -0.2277181 -0.051631037 -0.033825748
0000b0 a9 3b 7f be ec 94 a6 3e a1 3c 36 3e d4 d3 64 be
       -0.24925102 0.32535493 0.17796566 -0.22346431
0000c0 21 93 85 3e b7 2a 97 3e 4b a5 d9 3d 3b d4 f9 3e
       0.26088813 0.29524776 0.1062723 0.48794731
0000d0 f9 f7 64 3e a5 d9 e0 3e b6 22 b3 3e b9 21 76 3e
       0.22360219 0.4391605 0.3498742 0.24036302
0000e0 f1 07 e5 3e ea e4 01 3f bd e5 bb 3e fb 03 d8 3e
       0.4473262 0.5073992 0.36698714 0.42190537
0000f0 a9 32 37 3e 14 c0 a6 3e cb ec 0e 3e a2 6f 3c 3e
       0.17890419 0.3256842 0.13957517 0.1840196

fc1.weight f4 [3, 16]
000000 ef 99 94 3f aa bc 95 bf 5c 5f b0 bf 81 85 95 bf
       1.1609477 -1.1698201 -1.3779101 -1.1681367
000010 14 91 c0 bf 6f d4 c8 3f 31 84 bb 3f 03 7c ba bf
       -1.5044274 1.568983 1.4649717 -1.4569095
000020 3e 77 ba bf e7 18 a0 bf 0c a0 bb bf de 22 b4 3f
       -1.456764 -1.25076 -1.4658217 1.4073141
000030 3d 5a b3 bf 48 b3 c2 3f d3 37 a6 3f 84 53 94 bf
       -1.4011914 1.5210962 1.2985786 -1.1587987
000040 e2 aa b4 3f 6b 2e ad bf 74 a8 c5 bf 1d b3 b5 bf
       1.4114649 -1.3529791 -1.5442033 -1.4195286
000050 41 42 c1 bf 83 db 9e 3f 20 cb 9a 3f 44 0d 9e bf
       -1.5098344 1.241074 1.2093239 -1.2347798
000060 42 4e 93 bf 71 70 c4 bf 51 fd ac bf 60 02 bb 3f
       -1.1508257 -1.5346814 -1.3514806 1.46101
000070 28 56 91 bf c1 3a 95 3f 97 59 b7 3f f6 2c d2 bf
       -1.1354418 1.1658555 1.4324216 -1.6419971
000080 5c ed 90 3f 62 a8 8b bf b7 87 9d bf ca 7a 9c bf
       1.1322436 -1.0910761 -1.2307042 -1.2224972
000090 21 f9 98 bf d1 d9 af 3f 97 f1 92 3f 4a ee a7 bf
       -1.1951028 1.3738347 1.1479977 -1.3119595
0000a0 0f ee be bf a0 06 a3 bf c6 73 c2 bf fd fc 91 3f
       -1.49164 -1.2736397 -1.5191581 1.1405331
0000b0 63 6f bc bf a3 5c a6 3f 34 7f b8 3f 21 86 c8 bf
       -1.4721493 1.299702 1.4413819 -1.5665933

fc1.bias f4 [3]
000000 72 51 8c 3f 3b 25 a5 3f 84 0c 93 3f
       1.0962355 1.2901987 1.1488194
