analy_app/wind_model.pth (torch, 8260 bytes, 6 tensors)

lstm.weight_ih_l0 f4 [64, 3]
0	0xbda481ea	-0.08032592
1	0xbd593f60	-0.053038955
2	0x3df681f4	0.12036505
3	0xbe35c5fc	-0.17751306
4	0x3e17084e	0.14749262
5	0x3d029fb0	0.03189057
6	0x3dbad83e	0.09123276
7	0x3e66439b	0.22486727
8	0xbd7a89e6	-0.061166666
9	0xbdcef35e	-0.10105012
10	0xbdacb4d8	-0.08432931
11	0xbd96c850	-0.07362425
12	0xbe2586c0	-0.16164684
13	0xbdc1ce80	-0.09463215
14	0xbd411b8f	-0.047145423
15	0xbe4b927e	-0.19880101
16	0x3dd8dfe7	0.10589581
17	0xbcfbce1d	-0.03073793
18	0xbe8cd546	-0.27506465
19	0x3e1bba88	0.15207875
20	0xbe1cf725	-0.15328653
21	0x3b6b13ee	0.0035870033
22	0xbd9e034c	-0.077154726
23	0xbca26bcb	-0.01982679
24	0xbe9c9ecc	-0.30589902
25	0x3e84af00	0.25914764
26	0xbdfb0e94	-0.1225864
27	0x3dea6a41	0.114460476
28	0x3e2ba9ba	0.16763964
29	0x3e52b8e7	0.20578347
30	0xbe2c0d44	-0.16801935
31	0x3e433a3b	0.19065182
32	0x3e9adbd0	0.3024583
33	0xbe6beec2	-0.23040298
34	0x3e87879a	0.26470643
35	0xbeb93f35	-0.36181036
36	0xbd265f36	-0.040618144
37	0x3e16f448	0.14741623
38	0xbe03ca55	-0.12870152
39	0x3d8439e7	0.064563565
40	0x3e538756	0.20657095
41	0x3e5ae2f6	0.21375641
42	0x3e1fb8fb	0.15597908
43	0x3e158da3	0.14604811
44	0x3d6262e9	0.05527011
45	0xbe841e62	-0.2580443
46	0xbcb7bbff	-0.02242851
47	0x3e95e4dd	0.2927617
48	0xbc15917d	-0.009128925
49	0x3d14e9b6	0.036355697
50	0xbd9938e5	-0.07481555
51	0xbdbee75b	-0.09321471
52	0x3e265b96	0.16245875
53	0xbe3963aa	-0.18104425
54	0xbdc37264	-0.09543303
55	0xbb289825	-0.002572545
56	0xbdda464f	-0.106579416
57	0x3def7476	0.11692135
58	0x3d916cc3	0.07100823
59	0x3c8f2587	0.01747395
60	0x3d80d68a	0.0629092
61	0x3e215316	0.15754351
62	0xbe2bfed8	-0.16796434
63	0x3dbf17b9	0.093306966
64	0x3bca8fae	0.0061816787
65	0x3d85f7f2	0.065414324
66	0x3cbff4c1	0.023432137
67	0x3e20b515	0.15694077
68	0xbd8d2b06	-0.06892972
69	0xbdf67d97	-0.12035673
70	0x3e28cffa	0.16485587
71	0x3e0bb25e	0.1364226
72	0xbde91f66	-0.11382942
73	0xbd145fa4	-0.036224023
74	0xbccd48e3	-0.02505917
75	0x3c4c63eb	0.012474994
76	0x3d77d8de	0.060509555
77	0xbe05ed4a	-0.130788
78	0xbd575120	-0.0525676
79	0xbdfd65dd	-0.123729445
80	0xbddc4870	-0.10756004
81	0x3d5b6891	0.05356652
82	0xbd74e1c5	-0.059785623
83	0x3c0141fa	0.007889265
84	0x3da60dd0	0.08108103
85	0x3d39417e	0.045228474
86	0xbca75248	-0.020424977
87	0xbe93762f	-0.28801104
88	0xbc53d8e7	-0.0129301315
89	0xbe29bc9d	-0.16575857
90	0xbe519d96	-0.2047027
91	0x3e0eea81	0.13956644
92	0xbdc1cec0	-0.094632626
93	0xbdfe442b	-0.12415346
94	0x3e077492	0.13228062
95	0xbe34ed87	-0.17668734
96	0xbdb79957	-0.08964794
97	0xbde1ebb3	-0.11031284
98	0x3d049df0	0.032377183
99	0x3c50fad5	0.0127551155
100	0xbca0a97e	-0.01961207
101	0x3e555603	0.20833592
102	0x3e0ccf01	0.1375084
103	0xbe12511d	-0.14288755
104	0xbdc06fbb	-0.09396311
105	0x3d0733ab	0.03300826
106	0xbc818596	-0.015810769
107	0xbd11065e	-0.035406463
108	0x3d97a99c	0.07405397
109	0x3e2028ba	0.15640536
110	0xbdb9881f	-0.09059166
111	0x3cbe8b36	0.02325974
112	0x3dd5baa8	0.104359925
113	0xbe19e24e	-0.15027735
114	0xbdfe8cd4	-0.124292046
115	0xbda19053	-0.07888856
116	0x3e180e24	0.14849144
117	0xbe048f38	-0.12945259
118	0xbd9adc66	-0.07561569
119	0x3e218c6e	0.15776226
120	0x3d779079	0.060440514
121	0xbda11d0f	-0.078668706
122	0xbe0067fc	-0.12539667
123	0x3dcf4a3c	0.10121581
124	0x3e3acf0a	0.18243042
125	0xbcd376e4	-0.025813527
126	0xbbbe2ba3	-0.0058035417
127	0x3dc74aa7	0.09731036
128	0x3e218a20	0.15775347
129	0x3e3bc8ae	0.18338272
130	0xbe36995b	-0.17831938
131	0x3e85b9be	0.26118273
132	0x3e21cda5	0.15801103
133	0x3dbeeb2a	0.09322198
134	0xbdea9a9a	-0.11455269
135	0xbcc85856	-0.024456184
136	0x3d74891e	0.059701078
137	0xbe081ec7	-0.1329299
138	0x3d8cf8f8	0.068834245
139	0x3d953e78	0.072873056
140	0xbcc9e869	-0.024646955
141	0xbd29b7da	-0.0414351
142	0x3e21d61c	0.15804332
143	0xbc41ff25	-0.011840616
144	0xbeac9a29	-0.33711365
145	0x3e342042	0.1759043
146	0xbcb85d59	-0.02250545
147	0xbed875a8	-0.42277265
148	0x3ed8ff7d	0.42382422
149	0xbe113856	-0.14181647
150	0xbe43a537	-0.19105993
151	0x3eb4ec23	0.35336408
152	0x3c90da08	0.01768209
153	0xbebec117	-0.3725669
154	0x3ecf783a	0.40521413
155	0xbe1a0ab2	-0.15043142
156	0xbe8d888d	-0.27643242
157	0x3eb4d0c3	0.35315523
158	0xbd281887	-0.041039016
159	0xbe90ae0e	-0.28257793
160	0x3e509b31	0.20371701
161	0xbdc8c725	-0.09803609
162	0xbeb42382	-0.3518334
163	0x3ec71962	0.38886553
164	0xbdc8223e	-0.09772156
165	0xbe84baed	-0.25923863
166	0x3e9811d3	0.297011
167	0xbd772522	-0.060338147
168	0xbe942b13	-0.28939113
169	0x3eada135	0.33912054
170	0xbd86bb93	-0.06578746
171	0xbeb047ff	-0.3442993
172	0x3ebb5077	0.36584827
173	0xbe13753f	-0.14400195
174	0xbe7c0293	-0.24610357
175	0x3ed84e87	0.42247412
176	0x3c0032fd	0.007824657
177	0xbe7415c1	-0.23836423
178	0x3ecedd69	0.40403298
179	0xbe3be4e5	-0.18349035
180	0xbdc55b7a	-0.096365884
181	0x3e9e1edb	0.30882916
182	0x3c1ff1a5	0.009762202
183	0xbdd3280c	-0.10310373
184	0x3df819d7	0.121143036
185	0x3d8c0098	0.06836051
186	0xbea50071	-0.322269
187	0x3da54b0a	0.08070953
188	0x3d879ec3	0.06622078
189	0xbd29cfb2	-0.04145784
190	0x3dcb1155	0.09915415
191	0x3cf6cc38	0.030126676

lstm.weight_hh_l0 f4 [64, 16]
0	0xbd669f65	-0.056304354
1	0x3e9ca245	0.30592552
2	0xbcca3d0b	-0.02468731
3	0x3d93a11c	0.072084635
4	0xbe0e5eeb	-0.13903396
5	0x3da87ee5	0.08227328
6	0x3d8ee0c4	0.069764644
7	0xbea9fd1c	-0.3320092
8	0xbd6ac5fc	-0.05731772
9	0x3e8acb4d	0.2710823
10	0x3e0cb2e9	0.13740124
11	0xbeb8e54b	-0.36112437
12	0xbed03c14	-0.40670836
13	0xbe5d2873	-0.21597461
14	0xbd449a8c	-0.04799895
15	0xbd20fd9d	-0.039304364
16	0xbea2431d	-0.31691828
17	0x3ea8c776	0.32964677
18	0xbd1d8fc9	-0.038467202
19	0x3de7e5e9	0.11323149
20	0xbec873b9	-0.3915079
21	0x3e486ae5	0.19572027
22	0x3cec9f06	0.028884422
23	0xbe0c955e	-0.13728854
24	0x3c81d28a	0.015847463
25	0x3db342b1	0.08752955
26	0x3ce38ed4	0.027778067
27	0xbca25d01	-0.019819738
28	0x3d127eaa	0.035765328
29	0xbcc185a0	-0.023623288
30	0xbd0ce93b	-0.034402113
31	0x3e801eeb	0.2502359
32	0xbdb12ee8	-0.08651525
33	0x3ebb8a4f	0.3662896
34	0xbe7ecb67	-0.2488228
35	0x3e5c9b65	0.21543653
36	0x3da53164	0.08066061
37	0x3d01969e	0.03163778
38	0x3e87a41c	0.26492393
39	0xbeadb016	-0.33923405
40	0x3db85050	0.089996934
41	0x3e4a7648	0.19771683
42	0xbb9e6f7e	-0.0048350682
43	0xbeaa6cea	-0.3328622
44	0xbd88f38a	-0.066870764
45	0xbeb2629e	-0.34840864
46	0x3edfc3d1	0.43704084
47	0x3dbfe1c6	0.09369235
48	0x3d71636d	0.05893271
49	0x3e65ffae	0.22460815
50	0xbe8965a9	-0.26835373
51	0x3ebe7fb9	0.3720682
52	0xbe0d58c4	-0.13803393
53	0x3dd3bda2	0.10338904
54	0x3d1db15c	0.03849922
55	0x3d9d8a2e	0.07692371
56	0xbeaeb867	-0.34125063
57	0x3da2d9cb	0.07951697
58	0x3e70d73e	0.23519608
59	0x3ddb4992	0.10707392
60	0xbc79509b	-0.015216972
61	0xbebdeb56	-0.3709361
62	0x3db6a463	0.08918073
63	0x3eb5e6b9	0.3552759
64	0x3c1d63e6	0.009606337
65	0xbe6a3aef	-0.22874044
66	0x3cf1181b	0.02943044
67	0xbdb513f3	-0.08841696
68	0xbe87a0ce	-0.26489872
69	0x3ecc6b65	0.39925686
70	0x3d1d8014	0.038452223
71	0xbe5a0e91	-0.21294619
72	0xbe7c4d7b	-0.24638931
73	0x3eb266ab	0.34843954
74	0x3e685fc4	0.22692782
75	0xbebd9db8	-0.37034392
76	0x3d8442ce	0.064580545
77	0xbda6b9a8	-0.0814088
78	0x3e6d25ca	0.23158947
79	0x3ebbc1de	0.36671346
80	0xbc7bdd31	-0.01537256
81	0x3e9785da	0.29594308
82	0x3df94a51	0.12172378
83	0x3e517a26	0.20456752
84	0xbdb34497	-0.08753317
85	0x3df4005f	0.11914133
86	0x3e05130d	0.12995549
87	0xbe1fb9fb	-0.1559829
88	0xbea9df5e	-0.33178228
89	0x3d3e40c6	0.04644849
90	0x3ec8e42d	0.39236584
91	0x3d08cee3	0.033400428
92	0x3ccf8fc4	0.025337107
93	0xbc7f62b5	-0.015587498
94	0x3e9e6710	0.30938005
95	0x3e54629f	0.20740746
96	0x3dd33394	0.10312572
97	0x3c2cd0b0	0.010547802
98	0xbe8c3bee	-0.27389473
99	0x3e9e1072	0.30871922
100	0xbddca350	-0.10773337
101	0xbd7aff0f	-0.0612784
102	0x3e6be1d0	0.2303536
103	0xbdf0d45b	-0.117592536
104	0xbe496141	-0.19666006
105	0xbd0f6a2c	-0.035013363
106	0xbd209605	-0.03920557
107	0xbe581ea2	-0.21105435
108	0xbc6a0feb	-0.014286022
109	0x3b9ff5ce	0.004881597
110	0x3e3084b5	0.17238124
111	0x3e88ef81	0.26745227
112	0xbea16d29	-0.31528595
113	0x3e279fbf	0.16369532
114	0xbe08ab8d	-0.13346691
115	0x3e4d3a18	0.20041692
116	0xbe56defe	-0.20983502
117	0x3d98d2b1	0.07462061
118	0x3e9fd63e	0.3121814
119	0xbe4116db	-0.18856375
120	0xbe4e7793	-0.20162801
121	0x3df0b17d	0.11752603
122	0x3ec55f26	0.38549155
123	0xbe8adfc0	-0.27123833
124	0xbd1f2019	-0.03884897
125	0xbe3b2d71	-0.18279053
126	0x3ec6739f	0.38760087
127	0x3eb8632b	0.3601316
128	0xbec251b3	-0.37952957
129	0x3e3adf5e	0.1824927
130	0xbe8e65a3	-0.27811918
131	0x3e1ba2fc	0.15198892
132	0xbe5570d0	-0.20843816
133	0x3c8f0e80	0.017462969
134	0x3db75cb7	0.08953231
135	0x3ca6a60b	0.020342847
136	0xbd8b25c0	-0.067943096
137	0xbd908730	-0.07057035
138	0x3cf25bce	0.029584792
139	0xbe6d16e4	-0.23153263
140	0xbe91af93	-0.28454265
141	0xbe58f45e	-0.21186969
142	0x3ec9f1a4	0.3944217
143	0x3e3d3c9f	0.18480156
144	0xbec35d91	-0.38157323
145	0x3c85907b	0.016304245
146	0xbe263943	-0.16232781
147	0xbd6fbf3d	-0.05853199
148	0xbda4729f	-0.08029675
149	0x3e868f4b	0.262812
150	0x3e146959	0.14493312
151	0x3cedb444	0.029016621
152	0xbe59d664	-0.2127319
153	0x3e7617b0	0.24032474
154	0xbdc11e88	-0.094296515
155	0x3db8efb0	0.09030092
156	0x3dc9e33b	0.09857794
157	0xbef32ed3	-0.47496662
158	0x3ed40bd2	0.41415268
159	0x3e2ba43d	0.1676187
160	0xbd389214	-0.045061186
161	0x3e761368	0.2403084
162	0xbe8bf425	-0.27334705
163	0xbc142922	-0.00904301
164	0xbec05902	-0.37567908
165	0xbc658eb2	-0.014011072
166	0xbd82d9c5	-0.063891925
167	0xbe711208	-0.23542035
168	0x3da73ae4	0.08165529
169	0x3d939588	0.07206255
170	0x3e57161e	0.21004531
171	0xbe93a998	-0.28840327
172	0xbe81cedd	-0.25353137
173	0xbe51b742	-0.20480064
174	0x3e9bc477	0.30423328
175	0x3e806b10	0.25081682
176	0xbc99d5d4	-0.018778719
177	0x3de4a9be	0.11165188
178	0xbe870dfb	-0.26377854
179	0x3ecefe7d	0.40428534
180	0xbe51cf03	-0.20489125
181	0x3d9f31a4	0.0777314
182	0x3e197623	0.14986472
183	0x3d96772c	0.07346949
184	0xbeb35815	-0.3502814
185	0x3d1c7358	0.038195938
186	0x3e7b7543	0.2455645
187	0xbe129d60	-0.14317846
188	0xbe780b10	-0.2422297
189	0xbe68c1ab	-0.22730128
190	0x3c6080a0	0.013702542
191	0x3e35ea77	0.17765222
192	0x3c05e07f	0.0081712
193	0x3e51b8f8	0.20480716
194	0x3cb02ca2	0.021505658
195	0xbb981ee2	-0.0046423534
196	0xbe772513	-0.24135236
197	0xbbf9bf86	-0.0076217083
198	0x3c6599d5	0.014013727
199	0xbe6757ae	-0.22592041
200	0xbe96f679	-0.2948492
201	0xbd6b6fd4	-0.057479694
202	0x3e9f4e87	0.311146
203	0x3c87d899	0.016582774
204	0xbebf8fa3	-0.37414274
205	0x3bf4d969	0.0074722064
206	0x3e67de9e	0.22643515
207	0xbd848469	-0.06470568
208	0x3dc0135d	0.09378693
209	0x3e44b5ed	0.19210024
210	0xbec89cec	-0.39182222
211	0x3ead54ce	0.33853763
212	0x3daa52fe	0.08316611
213	0x3d8bc1af	0.068240516
214	0x3d81cb10	0.06337559
215	0xbdc73bee	-0.097282276
216	0xbedac28c	-0.42726552
217	0x3ec13103	0.37732705
218	0xbd1b875f	-0.037970897
219	0xbd8702cc	-0.0659233
220	0x3d36ecb2	0.044659324
221	0xbcdc5946	-0.026898038
222	0x3e60a3de	0.2193751
223	0xbd0200f4	-0.03173919
224	0xbe2546a5	-0.1614023
225	0x3ea6cb50	0.3257699
226	0xbe522880	-0.20523262
227	0x3d19ec88	0.03757909
228	0x3d44accd	0.04801636
229	0x3e89245e	0.26785558
230	0x3c8749b6	0.01651464
231	0xb8df5cc9	-0.00010650751
232	0xbe114c02	-0.14189151
233	0x3d4d72e6	0.050158404
234	0x3e838ec0	0.25694847
235	0xbe4d1b25	-0.20029886
236	0xbea8bc59	-0.32956198
237	0xbe105966	-0.14096603
238	0x3c1d0b79	0.009585255
239	0x3c148bf1	0.009066568
240	0xbdc5a754	-0.09651056
241	0x3ddb8bc9	0.10720021
242	0xbe9078e5	-0.28217235
243	0x3e975c7f	0.29562756
244	0xbe55e43e	-0.20887849
245	0xbd362924	-0.04447283
246	0x3ed7bd52	0.42136627
247	0xbea7ea04	-0.32795727
248	0xbe974b49	-0.29549626
249	0x3df5f00a	0.120086744
250	0x3dc5dd30	0.09661329
251	0x3d470807	0.04859164
252	0xbd498625	-0.049200196
253	0xbeacff7c	-0.3378867
254	0x3e65e46b	0.22450416
255	0x3cf61c08	0.030042663

lstm.bias_ih_l0 f4 [64]
0	0x3c8091a9	0.015694456
1	0x3d1d1f52	0.038359948
2	0x3eae0dd6	0.3399493
3	0x3d23303c	0.03984092
4	0x3dab41ad	0.08362136
5	0x3e0dec61	0.13859703
6	0x3eab772e	0.33489364
7	0x3dac47f4	0.084121615
8	0x3eab500f	0.33459517
9	0x3eb4acf5	0.35288206
10	0xbc11482c	-0.008867305
11	0xbdcf8b29	-0.101339646
12	0x3e8c7511	0.27433065
13	0xbdc9f72f	-0.098616
14	0x3e234007	0.15942393
15	0x3cf321ee	0.029679265
16	0x3e7df4f8	0.2480048
17	0x3e5d62b7	0.21619688
18	0x3e0a51cd	0.13507767
19	0xbdd369f3	-0.103229426
20	0x3e29de11	0.16588618
21	0x3cc52823	0.02406699
22	0xbdf1bab4	-0.11803189
23	0x3db6c336	0.08923952
24	0x3ddfd207	0.109287314
25	0x3e9fa85f	0.31183144
26	0x3adaf3d5	0.0016704748
27	0x3bc1624b	0.00590161
28	0x3e8c3c89	0.27389935
29	0x3da89aba	0.08232637
30	0x3e74899b	0.23880617
31	0x3eb41789	0.35174206
32	0x3c83c1df	0.016083656
33	0xbd0bb1cc	-0.034105107
34	0x3ca904c8	0.020632163
35	0x3ea71f6d	0.32641163
36	0xbe84c2e4	-0.2592994
37	0x3e375cfb	0.17906563
38	0x3daeb890	0.08531296
39	0xbe605bc6	-0.21910009
40	0xbe4178ac	-0.18893689
41	0x3ea6ebfe	0.32601923
42	0x3d5cd56d	0.053914476
43	0xbdff9c84	-0.12481025
44	0xbe9dc0e4	-0.30811226
45	0xbe2dbbbf	-0.1696615
46	0x3ea204f2	0.31644398
47	0x3eac6d20	0.33677006
48	0x3e561f31	0.20910336
49	0x3f112566	0.5669769
50	0x3e0726f6	0.13198456
51	0x3da513a5	0.080603875
52	0x3d74da20	0.059778333
53	0x3ede0092	0.4335981
54	0x3f08e568	0.53475046
55	0x3ea1be38	0.31590438
56	0x3ec7c8a0	0.39020252
57	0x3e9ab2f8	0.30214667
58	0x3f0eba70	0.5575323
59	0x3e78cc57	0.242967
60	0x3e9c47fd	0.30523673
61	0x3e16c8f4	0.14725095
62	0x3e5320c4	0.20617968
63	0x3e915b96	0.28390187

lstm.bias_hh_l0 f4 [64]
0	0x3e4bee5a	0.19915143
1	0x3d84088c	0.06446943
2	0x3e926a94	0.28596938
3	0x3ea93b3d	0.33053008
4	0x3eb3ec03	0.35141
5	0x3ea78f44	0.3272649
6	0x3e6dae92	0.23211125
7	0x3ec2565e	0.37956518
8	0x3da8a1b8	0.082339704
9	0xbda0c34b	-0.07849749
10	0x3e34f9e5	0.17673452
11	0x3e9eb4cc	0.30997312
12	0x3ea46c2c	0.3211378
13	0x3e8a6f79	0.27038172
14	0x3dd3d5d7	0.10343521
15	0x3e6e9045	0.23297222
16	0x3e1cb0e5	0.15301855
17	0x3e81c25c	0.25343597
18	0x3dd9fe99	0.10644264
19	0x3e3e4915	0.18582566
20	0x3d822fe4	0.06356791
21	0x3d72c2ec	0.059267923
22	0xbd233fdf	-0.039855834
23	0xbc9e49ae	-0.019322243
24	0x3d5f6c24	0.05454649
25	0xbdab1a54	-0.08354631
26	0x3e2a7f85	0.16650207
27	0x3e07479e	0.13210914
28	0xbdb3bdad	-0.08776412
29	0x3d8048ce	0.062638864
30	0xbd6b6de5	-0.05747785
31	0x3e50ae36	0.20378956
32	0xbebb663d	-0.3660144
33	0xbd6f09fd	-0.058359135
34	0xbd385c02	-0.04500962
35	0x3e8be846	0.27325648
36	0xbd3d1727	-0.046164658
37	0x3e7260f7	0.23669802
38	0x3e98b4a9	0.29825333
39	0xbd59c663	-0.053167712
40	0x3d0e9986	0.03481438
41	0xbd7f84ce	-0.06238251
42	0x3e6aca02	0.22928622
43	0xbde6aad4	-0.11263052
44	0xbeb3d921	-0.35126594
45	0xbd0a664f	-0.033788975
46	0xbd48e91d	-0.04905044
47	0x3e05b145	0.13055904
48	0x3e77adb7	0.2418736
49	0x3e0d6f3b	0.13811962
50	0x3eda6184	0.42652524
51	0x3ef5a662	0.47978503
52	0x3ec2fa1f	0.38081452
53	0x3f04ff1e	0.5195178
54	0x3d97d390	0.07413399
55	0x3ef5795a	0.47944146
56	0x3e69e7ac	0.22842282
57	0x3e3c3199	0.18378295
58	0x3ebceffa	0.36901838
59	0x3e027c31	0.12742688
60	0x3e65f959	0.224584
61	0x3e9c248c	0.30496633
62	0x3ef41b0b	0.47676882
63	0x3ee97e45	0.45604149

fc1.weight f4 [3, 16]
0	0xbfa1f92f	-1.265417
1	0x3fb57a93	1.4178032
2	0xbf97bc5e	-1.185436
3	0x3f8b3ffb	1.08789
4	0xbfb9adb4	-1.4506135
5	0x3fbde6fa	1.4836113
6	0x3f995622	1.1979411
7	0xbfae88ca	-1.3635495
8	0xbf9c282b	-1.2199758
9	0x3fac61dd	1.3467366
10	0x3fa75b7c	1.3074794
11	0xbfbe3ae6	-1.4861724
12	0xbfbb4f28	-1.4633532
13	0xbfc3480f	-1.5256366
14	0x3fafe6c0	1.3742294
15	0x3fb1fb84	1.3904881
16	0xbfb8d9de	-1.4441488
17	0x3fc0883b	1.5041574
18	0xbfbd582a	-1.479253
19	0x3fb0004c	1.3750091
20	0xbf9f8b82	-1.246445
21	0x3fb09386	1.379502
22	0x3f8ea1ec	1.1143165
23	0xbf8bb284	-1.0913854
24	0xbfba2df2	-1.4545271
25	0x3f96cef0	1.1781902
26	0x3fc7ebd8	1.5618849
27	0xbfc4815d	-1.5351979
28	0xbfc04e7d	-1.5023953
29	0xbfbe58ed	-1.4870888
30	0x3fbe4c8b	1.4867109
31	0x3fb6bc38	1.427619
32	0xbfc717d5	-1.5554148
33	0x3f92fabf	1.1482772
34	0xbfb337ad	-1.4001366
35	0x3faf3426	1.368779
36	0xbfa4e0eb	-1.288114
37	0x3fb6ee9f	1.4291571
38	0x3fbe3ad9	1.4861709
39	0xbfb47df4	-1.4100938
40	0xbfb1e5bf	-1.3898238
41	0x3fb8d75f	1.4440726
42	0x3f9f2e97	1.2436093
43	0xbf9c0b78	-1.2191
44	0xbf9d6e86	-1.2299354
45	0xbfc73730	-1.5563717
46	0x3f99d1e6	1.2017181
47	0x3f9978f9	1.1990043

fc1.bias f4 [3]
0	0x3fad5bb0	1.3543606
1	0x3fadef97	1.3588742
2	0x3faf67c6	1.3703544
